…
        "colab": {
          "base_uri": "https://localhost:8080/"
        },
        "outputId": "453fd63a-49f2-49cd-bd80-b0d960687610"
      },
      "execution_count": 13,
      "outputs": [
        {
          "output_type": "stream",
          "name": "stdout",
          "text": [
            "Model: \"sequential\"\n",
            "_________________________________________________________________\n",
            " Layer (type)                Output Shape              Param #   \n",
            "=================================================================\n",
            " conv2d (Conv2D)             (None, 150, 150, 16)      448       \n",
            "                                                                 \n",
            " max_pooling2d (MaxPooling2D  (None, 75, 75, 16)       0         \n",
            " )                                                               \n",
            "                                                                 \n",
            " dropout (Dropout)           (None, 75, 75, 16)        0         \n",
            "                                                                 \n",
            " conv2d_1 (Conv2D)           (None, 75, 75, 32)        4640      \n",
            "                                                                 \n",
            " max_pooling2d_1 (MaxPooling  (None, 38, 38, 32)       0         \n",
            " 2D)                                                             \n",
            "                                                                 \n",
            " dropout_1 (Dropout)         (None, 38, 38, 32)        0         \n",
            "                                                                 \n",
            " conv2d_2 (Conv2D)           (None, 38, 38, 64)        18496     \n",
            "                                                                 \n",
            " max_pooling2d_2 (MaxPooling  (None, 19, 19, 64)       0         \n",
            " 2D)                                                             \n",
            "                                                                 \n",
            " dropout_2 (Dropout)         (None, 19, 19, 64)        0         \n",
            "                                                                 \n",
            " flatten (Flatten)           (None, 23104)             0         \n",
            "                                                                 \n",
            " dense (Dense)               (None, 32)                739360    \n",
            "                                                                 \n",
            " dropout_3 (Dropout)         (None, 32)                0         \n",
            "                                                                 \n",
            " dense_1 (Dense)             (None, 4)                 132       \n",
            "                                                                 \n",
            "=================================================================\n",
            "Total params: 763,076\n",
            "Trainable params: 763,076\n",
            "Non-trainable params: 0\n",
            "_________________________________________________________________\n"
          ]
        }
…
